2025-03-31 22:32:30,594 - c3d_training - INFO - 训练集: 23640个样本
2025-03-31 22:32:30,594 - c3d_training - INFO - 验证集: 5910个样本
2025-03-31 22:32:30,749 - c3d_training - INFO - 模型结构:
C3dTiny(
  (conv_block1): Sequential(
    (0): Conv3d(1, 64, kernel_size=(3, 3, 3), stride=(1, 1, 1), padding=(1, 1, 1))
    (1): BatchNorm3d(64, eps=1e-05, momentum=0.1, affine=True, track_running_stats=True)
    (2): ReLU()
    (3): MaxPool3d(kernel_size=(1, 2, 2), stride=(1, 2, 2), padding=0, dilation=1, ceil_mode=False)
  )
  (conv_block2): Sequential(
    (0): Conv3d(64, 128, kernel_size=(3, 3, 3), stride=(1, 1, 1), padding=(1, 1, 1))
    (1): BatchNorm3d(128, eps=1e-05, momentum=0.1, affine=True, track_running_stats=True)
    (2): ReLU()
    (3): MaxPool3d(kernel_size=2, stride=2, padding=0, dilation=1, ceil_mode=False)
  )
  (drop_out1): Dropout(p=0.2, inplace=False)
  (conv_block3): Sequential(
    (0): Conv3d(128, 256, kernel_size=(3, 3, 3), stride=(1, 1, 1), padding=(1, 1, 1))
    (1): BatchNorm3d(256, eps=1e-05, momentum=0.1, affine=True, track_running_stats=True)
    (2): ReLU()
    (3): Conv3d(256, 256, kernel_size=(3, 3, 3), stride=(1, 1, 1), padding=(1, 1, 1))
    (4): BatchNorm3d(256, eps=1e-05, momentum=0.1, affine=True, track_running_stats=True)
    (5): ReLU()
    (6): MaxPool3d(kernel_size=2, stride=2, padding=0, dilation=1, ceil_mode=False)
  )
  (drop_out2): Dropout(p=0.2, inplace=False)
  (conv_block4): Sequential(
    (0): Conv3d(256, 512, kernel_size=(3, 3, 3), stride=(1, 1, 1), padding=(1, 1, 1))
    (1): BatchNorm3d(512, eps=1e-05, momentum=0.1, affine=True, track_running_stats=True)
    (2): ReLU()
    (3): Conv3d(512, 512, kernel_size=(3, 3, 3), stride=(1, 1, 1), padding=(1, 1, 1))
    (4): BatchNorm3d(512, eps=1e-05, momentum=0.1, affine=True, track_running_stats=True)
    (5): ReLU()
    (6): MaxPool3d(kernel_size=2, stride=2, padding=0, dilation=1, ceil_mode=False)
  )
  (drop_out3): Dropout(p=0.2, inplace=False)
  (flatten): Flatten(start_dim=1, end_dim=-1)
  (fc1): Sequential(
    (0): Linear(in_features=8192, out_features=512, bias=True)
    (1): ReLU()
  )
  (fc2): Linear(in_features=512, out_features=2, bias=True)
)
2025-03-31 22:33:51,563 - c3d_training - INFO - Epoch [1/15], Train Loss: 0.3146, Train Acc: 89.05%, Val Loss: 0.1623, Val Acc: 93.28%, Time: 80.81s
2025-03-31 22:33:51,652 - c3d_training - INFO - Epoch [1]: 保存最佳模型, 验证准确率: 93.28%
2025-03-31 22:35:12,255 - c3d_training - INFO - Epoch [2/15], Train Loss: 0.0834, Train Acc: 97.17%, Val Loss: 0.0728, Val Acc: 97.33%, Time: 80.39s
…
